…
Sample 3 -> Shape: (28, 28, 1) | Label ID: 0 | Class Name: T-shirt/top
Sample 4 -> Shape: (28, 28, 1) | Label ID: 3 | Class Name: Dress
Sample 5 -> Shape: (28, 28, 1) | Label ID: 0 | Class Name: T-shirt/top

============================================================
TASK 2: DESIGN / BUILD THE CNN MODEL
============================================================

Model: "sequential"
_________________________________________________________________
 Layer (type)                Output Shape              Param #   
=================================================================
 conv2d (Conv2D)             (None, 26, 26, 32)        320       
                                                                 
 max_pooling2d (MaxPooling2D  (None, 13, 13, 32)       0         
 )                                                               
                                                                 
 conv2d_1 (Conv2D)           (None, 11, 11, 64)        18496     
                                                                 
 max_pooling2d_1 (MaxPooling  (None, 5, 5, 64)         0         
 2D)                                                             
                                                                 
 flatten (Flatten)           (None, 1600)              0         
                                                                 
 dense (Dense)               (None, 128)               204928    
                                                                 
 dropout (Dropout)           (None, 128)               0         
                                                                 
 dense_1 (Dense)             (None, 10)                1290      
                                                                 
=================================================================
Total params: 225,034
Trainable params: 225,034
Non-trainable params: 0
_________________________________________________________________


============================================================
TASK 3: COMPILE AND TRAIN YOUR MODEL
============================================================
…
